model.pth (torch, 10207 bytes, 6 tensors)

weight f4 [32, 18]
00000000: 61a5 cabb 0532 813c 304b 3abc afdd 443c
00000010: 5b7a 933d 8c35 fdbd 875c 1bbd 3365 d7bb
00000020: d1bb 383e 6a90 f23d 52fb 26bc 1ad0 943e
00000030: 906f 69be 0b8d f8bc 2ff3 aa3e 4f8f dabd
00000040: 9c95 8e3e 01ea 08be 46ab af3e b12d ffbe
00000050: 82a9 57be 7292 3b3f 0720 cdbc f568 ce3d
00000060: 3384 bdbd 54f5 cbbd 27fe 41bd 9efe 123e
00000070: de39 cd3e fa51 97bd 36e3 96be 33ed 923e
00000080: 9210 693d 634c 1c3f 77e7 5abf 001b e23e
00000090: 53eb 003f ca4f 1bbe bbbd 4bbe 0f9b 953c
000000a0: 04ed 2dbd 41b9 c2bd da23 d4bd db87 07be
000000b0: d423 ad3e c187 783e ab6f 42be 6f81 553e
000000c0: 9ac4 af3d d795 14be 724f 80bd e5dc 9c3e
000000d0: f2b8 103e 70a8 ac3e 3964 a83d 05ea 973d
000000e0: 6b9c c8bd b482 483d d68c babd 240f 68be
000000f0: 700e 34be 2ddf 76ba 68da 863e 082d a7bd
00000100: f08c e53d 863a 9ebd e6cc 953d 17d4 1b3e
00000110: 665e 67be 9e72 f3bd 0990 03be 5607 46be
00000120: dd1d e83d bc4a ddbd ff4d 503e e455 bbbd
00000130: 0d2e d33c ad9a 88bd 6e63 3e3d 63b2 343e
00000140: 1f77 5dbe 3bd7 b0bc 5e9a 2dbd 4673 483e
00000150: a18e 6ebe dcca 99bd 168e 8c3d e18b ebbc
00000160: 54a1 573d f107 95bd 6da4 31be f386 0c3e
00000170: 2f3e 113e 5ad5 debc 397e f33d 57d8 1b3e
00000180: 2826 85be 2e33 7a3e 58e4 403e c006 59be
00000190: 3067 22bd b4d2 953e c000 46be 8d46 bfbd
000001a0: 406a a73e 3c39 81be 4d9d 05be e5f7 7bbc
000001b0: adab f23d b130 493e 671a dd3d fc14 85be
000001c0: 43d5 42be 31dc 10be 8392 0ebe ee48 58bd
000001d0: fcdd 5f3e ba39 cabd be50 22be 7aa2 a63e
000001e0: a20b 1dbe db7b 54be 60e0 023f 3dab 403d
000001f0: cb14 4d3d a998 88be cb6f e8bc 6f17 973e
00000200: b70d 883e 3bac f8bd c828 3c3d 365f f03d
00000210: 7506 abbc 2e83 053e 19a6 a13d 1858 ab3e
00000220: cd1c 093e 2109 0d3f 51bf 6fbe 3ad2 6a3e
00000230: 1aa8 be3e a8cd 49be b6b6 873e 8a4f afbe
00000240: b306 b43e d400 48be aaa7 66be cd85 893e
00000250: dd78 81bb 0924 063e a9b2 70be dce9 c8bd
00000260: 6a2b 95bc a7fa 4e3d 3fed 443e 6008 b5bc
00000270: 3293 c6bd 2d57 72bd 89e9 adbe 10f8 1abe
00000280: 2fc9 f33e 50d3 49bd 50c3 503e b4d2 f2bc
00000290: 402c c0bd 1231 53be 1ae9 583e f1c5 003d
000002a0: 52cc 193e b976 b5bd 3cd8 7e3e 2cba 44be
000002b0: ef63 2fbc ff51 2ebe 94f3 6ebe 4f53 e6bd
000002c0: 9800 233e 811a 383e b6ab 36bc b425 3fbe
000002d0: a36a 0c3e b3ad 23be 004f f63a 7ee0 65be
000002e0: d710 62bd 3244 473e a571 fb3a c054 dc3d
000002f0: 7e55 57be 63aa 843e 04c5 c63d 9643 583e
00000300: 8154 29bd ea2a 8fbe 8bc9 5d3e 2f25 05bc
00000310: 34e5 c1bd 308d 1ebd 4eb0 babd f55f ad3b
00000320: 0b3e 82be ba8e ad3e 4ae2 5a3d 49f4 0b3b
00000330: 05a9 4a3e 09b9 07be d5f0 ac3d a352 323e
00000340: 35b6 143e c567 f83c edb0 7b3e aa64 993e
00000350: 2744 b33c f3d1 be3c 564f 8abe c93c 503e
00000360: 7232 123d 2c1b 09be 0c81 733e 80f8 113e
00000370: 3505 eb3c f23a 06bd fce2 3bbe 2973 503e
00000380: 62e9 23be efd6 c4bd 3795 62bd 1873 19be
00000390: cdf5 f5bc 5273 4ebe 0bd0 2cbe 8b66 463d
000003a0: dc7a 653e 22d6 6fbe 07ff 063f aad8 72bc
000003b0: 6361 083d 2923 8abe a84b 6c3e cac8 893d
000003c0: 5cd6 4b3d 2a07 463e 64a7 82bd 5e2b 3b3c
000003d0: 83a7 e43e 4519 2bbd e62b e3bc 6f4e e93e
000003e0: 9ed8 e3be 359f 1a3f a156 6dbe 8a6c e33e
000003f0: 01d6 313d 62bb d33d 2129 97bd 70e9 80be
-0.0061842655 0.015770921 -0.011370465 0.012015744 0.07201072 -0.12363729 -0.037930038 -0.006573343
0.18040396 0.11843951 -0.010191755 0.2906502 -0.22796464 -0.030340692 0.3338866 -0.10671865
0.27848518 -0.13370515 0.3431036 -0.49839547 -0.21060756 0.7327033 -0.025039686 0.10078613
-0.092537306 -0.09958902 -0.04736152 0.14354941 0.40083212 -0.07388683 -0.29470223 0.28696594
0.05690057 0.61054057 -0.8550944 0.44161224 0.50359076 -0.15167156 -0.19896595 0.018262414
-0.042462364 -0.09507991 -0.10358401 -0.13235418 0.33816397 0.24270536 -0.1898791 0.20850156
0.08582421 -0.14510284 -0.06265153 0.3063728 0.14133051 0.33722258 0.08222241 0.074176826
-0.09795459 0.048952773 -0.091088936 -0.22662026 -0.17583632 -0.0009417411 0.26338506 -0.08162886
0.11208522 -0.07726006 0.07314472 0.15217625 -0.22594604 -0.11887096 -0.12847914 -0.19338736
0.11333821 -0.1080527 0.20342253 -0.09147242 0.025778795 -0.06670127 0.046481542 0.17646174
-0.21627472 -0.021587005 -0.042383544 0.19575223 -0.23296596 -0.075093955 0.06863038 -0.028753223
0.05264409 -0.07276905 -0.1734788 0.13723354 0.14183877 -0.027201343 0.118893094 0.15219246
-0.26005673 0.24433586 0.18837106 -0.21193981 -0.03964919 0.29262316 -0.19336224 -0.09339628
0.3269825 -0.2523898 -0.13048287 -0.015378927 0.11849151 0.1964748 0.107960515 -0.25992572
-0.19026665 -0.14146496 -0.13923077 -0.052803926 0.21862024 -0.09874292 -0.15851113 0.32545835
-0.15336469 -0.20750372 0.5112362 0.047038306 0.050068658 -0.2667897 -0.02837362 0.29510066
0.26572964 -0.12142225 0.04593733 0.1173691 -0.020877102 0.13038322 0.07893009 0.33465648
0.13389893 0.55092055 -0.23412825 0.22931758 0.37237626 -0.19707358 0.26506585 -0.3424037
0.3516136 -0.19531566 -0.22524896 0.26859894 -0.0039511756 0.13099684 -0.23505653 -0.0981023
-0.018209178 0.05053201 0.19231127 -0.02209872 -0.09696044 -0.05916517 -0.33967236 -0.15133691
0.47614428 -0.04927379 0.20387006 -0.029641487 -0.0938344 -0.20624188 0.21182671 0.03143877
0.15019348 -0.08860535 0.24887174 -0.19211644 -0.010704978 -0.17023467 -0.23335105 -0.112463586
0.15918195 0.1797886 -0.0111493375 -0.18666726 0.13712554 -0.1598423 0.0018791854 -0.22448918
-0.05519184 0.19459608 0.0019183649 0.10758352 -0.21028706 0.25911245 0.097055465 0.21119532
-0.041340355 -0.27962428 0.21658914 -0.008126541 -0.09467545 -0.038708866 -0.09115659 0.00529098
-0.2543796 0.33897954 0.053438462 0.0021355322 0.19791038 -0.13254179 0.084443726 0.17414336
0.14522631 0.030322919 0.2457921 0.29959613 0.021883084 0.023293471 -0.27013654 0.20335688
0.03569264 -0.13389271 0.23779696 0.14254951 0.028689006 -0.03277106 -0.18348306 0.2035643
-0.16006997 -0.09611308 -0.055318084 -0.14985311 -0.030024434 -0.20161179 -0.16876237 0.048437636
0.22410148 -0.23421529 0.5273289 -0.014822165 0.033296 -0.2697995 0.23075736 0.067277506
0.049764976 0.1933867 -0.063795835 0.011423914 0.4465905 -0.041772146 -0.027730893 0.45567653
-0.44501203 0.6039918 -0.23177578 0.44418746 0.04341698 0.10338475 -0.073808916 -0.251781

bias f4 [32]
00000000: 13c6 b43d 078d 9c3e 49c5 863e ff5d 31be
00000010: 1181 e03d 9b94 fbbd 11b9 fcbd e63e dd3d
00000020: 6e22 7eb8 b469 683d 4bc1 473e 94fb a53e
00000030: 135b c4bc b8ce 023d c36c f0bc ad00 a23e
00000040: 13e6 d1bd d6a5 923e 4d75 1e3d 1ffd 3bbd
00000050: 8224 28be 4186 bc3d 580b 3dbe e327 28be
00000060: 5be0 2c3e fe58 2a3d 7b8f 063e f31f 213e
00000070: c430 453d 9526 423e 9e00 063e cc1d f3bd
0.08826842 0.30576345 0.26322392 -0.17321013 0.109621175 -0.122842036 -0.12339986 0.108030125
-6.0590384e-05 0.05674143 0.19507329 0.324185 -0.023969209 0.031935424 -0.029348737 0.3164114
-0.10248961 0.28642148 0.038686085 -0.045895692 -0.16420177 0.092052944 -0.18461359 -0.16421466
0.1688246 0.041588776 0.13140671 0.15734844 0.04814221 0.1896003 0.13086173 -0.11870918

weight f4 [32, 32]
00000000: c0dc 7ebe 8abb 733f d9f9 013f 7dbc 1cbd
00000010: 95fd 23be bb20 fdbd 915a b2be 7029 25be
00000020: 80ea c3be 1448 10bd 1e74 b7bd 578c 993e
00000030: 9a50 9e3d bf9c 3e3f 5c13 82be 2796 f33e
00000040: 1b92 8e3d 9a8e 0f3e 1940 183e ce31 12bf
00000050: 731d 563d c44b 883b 0b88 82bd 1ee8 8dbe
00000060: 3641 dfbe 9391 f73e 1485 993e c98c 213f
00000070: 9c57 9e3d 04bc 61be 960c 94bd 18f7 fdbd
00000080: 3be0 783c 0e81 eebd f477 1cbe f733 20be
00000090: f00c 6b3d 61f8 30be d7f5 5e3d 0b73 5cbd
000000a0: 73b8 b5bc e4cf c4bd 851f 06be 5589 23be
000000b0: 251c 5cbd e5df 26be 91b3 613c 1c8b 13be
000000c0: 01d0 193e 85b2 33bd e6d5 f23c 465c eabd
000000d0: d67c cd3d ee07 0f3e f811 69bc d904 25be
000000e0: ad76 0abe 1221 e6bc 0021 103e bb33 b13d
000000f0: de14 043d e585 223e 62dc d43d 4cb6 a73b
00000100: 4329 9a3d 5d97 563e 3fea a33d 6463 e2bd
00000110: a7ed 343c 5c51 cc3d b997 b6bd cf19 e7bd
00000120: 4f24 57bc 09ed 283e 256d 27be c69f 263e
00000130: 39ab d6bd f4c8 143e 05bb eebd e4ea 843e
00000140: cc0d 10be 372a e53d 6f0b af3d 34d7 ee3c
00000150: 2f15 7bbc 7ee9 743d 5ed9 213e 4dcc f4bd
00000160: 54c7 5fbe 37f5 b63d 56ac 143e b04c ed3d
00000170: d4db 9abd 2985 9e3d 60dd 913d 0bec 0f3e
00000180: 4a50 af3c 8a4b dd3c 67c4 64be 6654 ac3d
00000190: 0e41 d5bd 7f6e c53d bfa4 e2bd 4ea0 933d
000001a0: a838 c53d dca0 81bc 9895 babd 937c f83d
000001b0: db84 663e bf61 8cbc 5770 853c cf38 c93d
000001c0: 2079 593d f125 583e ed77 23be b8e7 3a3d
000001d0: e129 123e 1e22 d1bd 6f29 1dbe 7e74 42bc
000001e0: 31b7 1b3e 0ce0 173e f267 27be 68a6 c03d
000001f0: 0e92 27be b190 48be d845 e53d 2f34 98bd
00000200: b7c9 c73e 50f8 c6be 5a21 753d d856 e33d
00000210: be96 c43d f273 b03e eb22 3c3e 922b ec3e
00000220: c3bd ec3b 6368 3a3d bdcf 4f3d b1f7 b03d
00000230: fe33 063d 57bf c6be 6349 803d ac7b abbd
00000240: 19ed 433d fa64 383e d7c2 c53d 568d de3e
00000250: 3d02 b0bd 52e9 6a3e fdef 4abd adce 363e
00000260: f5ac 643e 6d9c 12be ec37 b3bd a339 993c
00000270: 1953 393c 3a63 b43e fc5b 83bd 07c6 15bd
00000280: 1d62 9bbd aedb 0dbd a9d7 c7bc b7a8 1a3e
00000290: 1954 86bd a621 5f3d bc49 873d 7fc7 953c
000002a0: b2bd 623e 86dd 3ebe dda7 d8bd c323 3a3e
000002b0: 6138 16be 93b2 73be e0ed 403e 45c0 59be
000002c0: 6455 bc3d 926d a13e f201 3abe 9b52 f1bc
000002d0: 246a 37bb f4f1 4abe 8fd1 4dbc a65f d4bd
000002e0: dcb0 5e3e d3c2 c13b eccd f3bd 44e3 81be
000002f0: 2b48 db3a 9948 a93d 2d6f 503e a1ec 80bd
00000300: 5d78 c0bd 3174 ce3c 230c ffbd fe2f f737
00000310: 9b5a 1bbe 7a83 22be f409 efbd 0865 3cbd
00000320: 6066 b3bd 7038 69bd bba7 163e dfa5 abbd
00000330: 6da0 78bc c44a 043e f62d bcbd b170 c8bd
00000340: 19b4 2c3e 0d4d 2c3b f051 db3b 7f3c cfbd
00000350: 36e2 213e 9747 34be 75a0 6d3d 637d 0c3e
00000360: ef4d 72bd c2be 8ebd d65a 8cbd 9eb3 053d
00000370: e68c d8bd 876f 163e 10fc cebd bc8c 81bd
00000380: e763 8abd 7fb4 95be 8a26 1b3e 622b 2b3d
00000390: c08c 5e3e 13f3 b4bd ca64 153e f93a 3e3e
000003a0: afcc 9c3d 41c5 c33d aaf4 ef3d 009b 883d
000003b0: 6111 d53c 983e 23be 06b5 8ebd 4f54 bfbd
000003c0: f643 8e3c c3c7 1b3e 1cd9 ee3c b2b5 1c3e
000003d0: d9c4 9dbd 7864 553e a0a4 6e3d 0a32 303d
000003e0: 9c9c c83d 6cbe 4fbe 7cf5 23be 1b96 5bbe
000003f0: 9db0 ba3c 1719 803d 46bd e53b 114b 0c3e
-0.24888897 0.95208037 0.5077186 -0.038265694 -0.16014703 -0.123597585 -0.34834722 -0.16129088
-0.38264847 -0.03522499 -0.089576945 0.29989883 0.07730217 0.74457926 -0.25405395 0.47575495
0.06961461 0.14019242 0.14868201 -0.57107246 0.05227418 0.0041594226 -0.063736044 -0.27716154
-0.4360444 0.48353252 0.29984343 0.63105446 0.07731554 -0.22044379 -0.07228963 -0.12400645
0.015190179 -0.11645709 -0.15280133 -0.15644823 0.057385385 -0.17282249 0.05443367 -0.05382065
-0.022182679 -0.096099645 -0.13097961 -0.15970357 -0.05373778 -0.16296346 0.013775722 -0.14408535
0.15020753 -0.04387142 0.02964301 -0.11443381 0.10033576 0.13967869 -0.0142254755 -0.1611513
-0.13521834 -0.028091941 0.14075089 0.08652445 0.032246463 0.15871389 0.10393597 0.005118167
0.07527401 0.20956178 0.08003663 -0.110541135 0.011042989 0.099764556 -0.089156576 -0.112842195
-0.013131215 0.16496672 -0.16350229 0.16271886 -0.10481877 0.14529783 -0.11656765 0.25960457
-0.14067763 0.111896925 0.08547103 0.029155351 -0.015324875 0.059792988 0.15805575 -0.1195303
-0.21853381 0.0893349 0.14518866 0.115868926 -0.0756146 0.07740242 0.07122302 0.14054887
0.02140059 0.027013559 -0.22340547 0.08414535 -0.10412799 0.09640216 -0.11066579 0.0720831
0.09629947 -0.015823774 -0.09110564 0.12133136 0.22511618 -0.017136453 0.01628892 0.098252885
0.05309403 0.21108223 -0.15963717 0.04563114 0.14273788 -0.102115855 -0.15347837 -0.011868594
0.152066 0.14831561 -0.16348246 0.094067395 -0.16364309 -0.19586445 0.11194962 -0.07431828
0.39021084 -0.38861322 0.05984626 0.111005485 0.09599064 0.3446346 0.18372695 0.46126992
0.00722477 0.045509707 0.050735224 0.086409934 0.032764427 -0.38817856 0.062639974 -0.08373198
0.047833536 0.1800727 0.096563034 0.43467206 -0.08594177 0.22940567 -0.049545277 0.17852278
0.22331603 -0.14317484 -0.087509006 0.018704241 0.011311316 0.35231954 -0.06414029 -0.036565807
-0.07587073 -0.03463333 -0.024394827 0.15103422 -0.06559009 0.05447545 0.066058606 0.018283604
0.22142676 -0.18639192 -0.105788924 0.18177705 -0.14669944 -0.2379859 0.18840742 -0.21264751
0.091959745 0.31528908 -0.18164805 -0.029458335 -0.0027986849 -0.1981886 -0.01256217 -0.10369806
0.21747154 0.0059131174 -0.11904511 -0.25368702 0.0016729882 0.082658 0.2035491 -0.062951334
-0.093979575 0.025201889 -0.12453487 2.9467043e-05 -0.15171282 -0.15870467 -0.1167182 -0.04599479
-0.08759761 -0.05693859 0.14712422 -0.08381247 -0.015174967 0.12919146 -0.09188454 -0.09787119
0.16865577 0.0026291043 0.0066931173 -0.101189606 0.15808949 -0.17605434 0.058014352 0.13719706
-0.059156355 -0.06969978 -0.06853263 0.032642 -0.10573749 0.14690982 -0.10106671 -0.06325671
-0.06757336 -0.2923927 0.1515142 0.04178942 0.2173338 -0.08835425 0.14589229 0.18577184
0.07656228 0.095591076 0.11716588 0.06670189 0.026009263 -0.15941846 -0.06968121 -0.093422525
0.01736639 0.15212922 0.02915626 0.15303686 -0.07703561 0.20839107 0.058262467 0.04301647
0.09795496 -0.20287484 -0.16011614 -0.2144398 0.022789294 0.062547855 0.0070110885 0.1370051

bias f4 [32]
00000000: 6dbe b13e c852 8f3d fc6a 2cbd b7fa ba39
00000010: 829b 453e 36e9 b73d bc7c e53d 6ee1 883e
00000020: bd6a d53d 1f9d 8f3d ce17 23be 7ba5 85bc
00000030: 7fbd 2ebe 67da 233e 8afa 803e 9175 053c
00000040: 7cdc 843e be26 03be bd89 773d 1e91 bc3d
00000050: 048a 84bd 259d 6e3e 272c 233e cef4 9dbc
00000060: c676 e8bd 6ada ecbc 11fc 1a3e 593d 7c3e
00000070: 3c73 dfbd 7a6a 043e 8abe 25bd a769 b7bd
0.34715596 0.06998211 -0.042094216 0.00035663482 0.19297603 0.08980028 0.11205432 0.2673449
0.10420749 0.0701239 -0.1592705 -0.016314259 -0.17064475 0.16001283 0.25191146 0.008145706
0.25949466 -0.12807748 0.06043409 0.092073664 -0.06471637 0.23302133 0.15934812 -0.019281771
-0.11350779 -0.028912742 0.15135218 0.24632777 -0.10910651 0.12931243 -0.040464915 -0.089556985

weight f4 [4, 32]
00000000: c3c5 76bf 13a3 adbd 376a 23be d46d 933e
00000010: 8ddf 223f bb2b da3e 5945 14be 70bd 513e
00000020: 0838 eebd 184c f93d b87f 3a3d 1659 56bd
00000030: 68a6 05be ace0 c4be 8b42 18be f0cd c9bd
00000040: a076 16be 38fd 253e 8f7d 0bbd 4918 45bd
00000050: a6dc c23e 0738 1bbe 56f1 10bf 41d9 423d
00000060: 671d c33d 0bfa ffbd 3863 eb3c 394e 193f
00000070: b78f 8bbc a73e 80bd 36c0 0e3e b6a6 75be
00000080: f1c1 933f 4171 303e 4da5 193e b22e 203e
00000090: 8165 49bf bb12 af3c edce 03be e073 a2be
000000a0: f825 383e cf74 bebe 135e 0a3e 4f31 a2bd
000000b0: 3e39 d23d 533f 0d3d 1e48 363f 43d5 14be
000000c0: 5a54 693e f099 0ebe f4a2 aa3d ec01 8b3e
000000d0: ac4b 66be 16a2 253e 2808 503f b0d0 2c3e
000000e0: 872f 0cbd db9d b8be 8a0e c1be 92df 64bf
000000f0: 3f77 44be 2276 083e cff4 6b3d 7b75 8e3e
00000100: 5732 273f e48e 843c 9074 893e f965 40be
00000110: 6d08 d33d caaa acbe 62d5 fcbd cba8 36be
00000120: 02a0 2dbe b581 cbbe 7dfe c4bd 0957 763e
00000130: e758 33be ef19 f83d a254 96bd 953a f13d
00000140: 597b 9f3e 826f 4b3e 3fa9 033e 2dae a83e
00000150: 7d4b 2bbd 6c01 9fbe 15f6 d13e 82b2 b73c
00000160: 7219 4abe ec41 773e fd82 adbd 3bed c5be
00000170: 0959 71be bc8b 04be d5c7 1ebb b3a9 95bd
00000180: 5911 84bf 3212 1ebe 456e 9bbe 02dd 92be
00000190: ba77 d83e a17f a63d 1050 a4bc bfb5 b53e
000001a0: 11aa 5abb 6897 a63e ca4f fdbd 0a6b 13be
000001b0: 6d7b d33e 784b fc3c f71e b6be 9284 223e
000001c0: 67a1 17bf 27db 2fbe 99db 98bc 6a08 eebe
000001d0: 2c87 e6bd bdbb a23e 9e7b 58bf 6857 0c3e
000001e0: 0554 37bd a98e 933d f27a 6c3e 9a46 5c3f
000001f0: 0e9a 623e c766 ffbd 686e 233d 0b66 5abe
-0.9639551 -0.084783696 -0.15958486 0.2879473 0.6362236 0.4261149 -0.14479579 0.20482421
-0.11631781 0.12172717 0.04553196 -0.052331053 -0.1305176 -0.3845266 -0.14869134 -0.098537326
-0.1469369 0.16209877 -0.03405529 -0.048118863 0.38058966 -0.15158091 -0.5661825 0.04757047
0.095270924 -0.12498864 0.028733835 0.59884983 -0.017036302 -0.0626195 0.1394051 -0.23989376
1.1543561 0.17230703 0.15004463 0.15642813 -0.7867051 0.021371236 -0.12871905 -0.3172903
0.17983234 -0.37198493 0.13512449 -0.07919561 0.10264824 0.03448422 0.7120379 -0.14534478
0.22786084 -0.1392591 0.08331862 0.27149904 -0.22489804 0.16175112 0.81262445 0.16876483
-0.034225013 -0.36057934 -0.37706405 -0.8940364 -0.19186114 0.13326314 0.057606515 0.27824005
0.6531119 0.016181417 0.26846743 -0.187889 0.103043415 -0.33724052 -0.12345387 -0.17837827
-0.1695557 -0.39747396 -0.09618852 0.24056639 -0.17514382 0.121143214 -0.07340361 0.11778752
0.31148794 0.19866756 0.12857531 0.32945386 -0.041820038 -0.31055772 0.41008058 0.022423986
-0.19736269 0.24146241 -0.0847225 -0.38657555 -0.2356912 -0.1294393 -0.0024227996 -0.07307758
-1.0317794 -0.15436628 -0.30357566 -0.2868424 0.42278844 0.08129812 -0.020057708 0.35490224
-0.0033365528 0.3253739 -0.12368734 -0.14396301 0.41305104 0.030797705 -0.355705 0.15870884
-0.59230655 -0.17173444 -0.0186594 -0.46490794 -0.11256251 0.31783858 -0.84563625 0.13705218
-0.04475786 0.07204945 0.23093775 0.8604523 0.2212908 -0.12470775 0.039900213 -0.21327989

bias f4 [4]
00000000: 2eb2 0f3e 9317 83be 7f35 dc3b 1934 3abb
0.14032814 -0.25603923 0.0067202444 -0.00284124
