model.pth (torch, 10335 bytes, 6 tensors)

weight f4 [18, 18]
0.24573523 -0.55059636 -0.29111773 0.5838132 0.15104152 0.07772868 0.03644329 0.06968495
-0.09235392 0.051236797 0.52532667 0.23997697 -0.33444107 0.51957285 -0.09998801 0.46096447
-1.0175763 0.36085242 0.16488163 0.36498258 0.0040840297 -0.1982963 0.14855169 0.057553217
-0.07219759 -0.06341507 0.10821863 -0.18765442 -0.033424273 0.5062437 -0.17656223 0.09101855
-0.13587706 -0.30142322 0.8529733 -0.533142 0.18073933 0.22272989 0.2231802 -0.35218033
-0.24086203 -0.0011860845 0.012940315 0.06803802 0.13793816 -0.11270757 0.28909373 -0.2928988
0.4388497 -0.031941272 -0.02706174 0.14430955 0.21735969 0.23699833 -0.13804843 0.13231488
0.12907803 0.29844028 0.17097385 0.052077133 0.06023223 0.065150835 0.3593603 0.34431517
-0.32274818 0.3708455 0.37529987 -0.20893674 -0.44372207 0.04780644 -0.07647926 0.15490171
-0.23754752 0.08275547 0.08880074 -0.14180903 -0.19165008 -0.032277007 0.09014429 0.17613558
0.08398906 -0.04509272 -0.26938057 0.26468533 -0.54043394 0.29690894 0.22042793 -0.020830333
0.28542203 0.11578948 -0.16507673 -0.2127012 -0.0723707 0.20526125 0.103209406 0.054311756
0.036619008 -0.06448857 -0.19314632 -0.23775665 -0.15398687 -0.15365541 0.17793714 0.1789371
-0.14695565 0.0508929 -0.07698153 0.18760155 0.14844112 0.1383999 0.074206464 -0.38929388
0.22484887 -0.0011844051 -0.05250967 0.06553884 -0.18955766 0.017460514 0.025351623 -0.3899044
0.34713924 -0.09910209 0.16631068 -0.04351993 0.14881808 0.19452213 0.084512 -0.027007194
0.13721022 -0.1096074 -0.15941176 0.17853957 -0.18708992 -0.032648303 0.02890021 -0.12972058
-0.18974784 -0.01682434 0.049930256 0.041079897 -0.16173153 0.01025529 -0.06627118 -0.21582566
-0.2001892 0.05951298 0.2145517 -0.16658175 -0.065014124 -0.09579562 -0.040801544 0.20781831
0.029861573 0.037812207 -0.023897218 0.31266275 -0.0028838036 -0.10963256 0.32532993 -0.120823
0.56599945 -0.33216807 0.04314926 0.17348433 0.11673107 0.009395345 0.08813115 0.03035812
0.16220894 0.07496369 -0.00899618 0.00528458 -0.20972373 0.34681663 -0.5707984 -0.035540335
0.20837504 0.05841404 0.1938045 0.044930633 0.50012594 -0.17396381 -0.13639522 0.47867018
0.23312119 0.10328849 0.10057766 0.122525334 0.18051834 -0.015805991 0.23100767 -0.043917168
0.3744469 0.1501628 -0.18045971 0.7025896 -0.5619188 0.8231301 0.1665281 0.049637027
-0.09380668 0.19866091 -0.07615627 0.13686198 -0.14023902 0.23881127 -0.01618988 0.23730423
-0.061362162 -0.059781376 -0.08942933 -0.07103869 0.12776458 -0.19638163 0.39842606 -0.012918381
-0.2143608 0.036390085 0.043087754 -0.053140305 0.21760589 0.12995443 0.19434452 0.066441044
0.11144501 -0.13229895 0.077204846 0.43316206 -0.2647125 0.11718571 0.20010301 -0.31240126
0.3880747 -0.25169992 -0.13392352 -0.2351844 -0.13200732 -0.14258996 -0.052702356 0.04343065
0.04962262 0.0428157 -0.08375921 0.012822581 0.35135257 -0.2923466 -0.26528305 0.041776676
0.083979726 0.09290545 -0.046068165 0.022827532 -0.01607664 -0.024165481 0.014592305 -0.2046381
00000000: 04a2 7b3e e2f3 0cbf 620d 95be c874 153f
00000010: a1aa 1a3e 3730 9f3d 8f45 153d fcb6 8e3d
00000020: 0d24 bdbd addd 513d cf7b 063f 86bc 753e
00000030: dc3b abbe ba02 053f 84c6 ccbd 8903 ec3e
00000040: f13f 82bf a6c1 b83e bbd6 283e ffde ba3e
00000050: 53d3 853b 2f0e 4bbe ef1d 183e ecbc 6b3d
00000060: 54dc 93bd c3df 81bd bba1 dd3d 7b28 40be
00000070: e4e7 08bd 3099 013f bbcc 34be ef67 ba3d
00000080: 5b23 0bbe 2554 9abe 755c 5a3f fe7b 08bf
00000090: bb13 393e 4e13 643e 5a89 643e fb50 b4be
000000a0: 89a4 76be 6476 9bba 9d03 543c 8457 8b3d
000000b0: a93f 0d3e 3ad3 e6bd 1804 943e d5f6 95be
000000c0: e8b0 e03e dad4 02bd 95b0 ddbc e2c5 133e
000000d0: 8a93 5e3e b1af 723e 915c 0dbe 8d7d 073e
000000e0: 082d 043e 2acd 983e c513 2f3e d54e 553d
000000f0: 12b6 763d cd6d 853d 13fe b73e 144a b03e
00000100: 403f a5be 76df bd3e 4e27 c03e 83f3 55be
00000110: 8a2f e3be b0d0 433d 29a1 9cbd 8e9e 1e3e
00000120: a83f 73be b37b a93d 2add b53d 6336 11be
00000130: eb3f 44be e534 04bd 929d b83d e35c 343e
00000140: 7502 ac3d 25b3 38bd 40ec 89be d684 873e
00000150: e159 0abf 7304 983e dcb7 613e 60a4 aabc
00000160: d622 923e 0923 ed3d e009 29be 58ce 59be
00000170: 1737 94bd 0130 523e 745f d33d 0176 5e3d
00000180: d0fd 153d 9512 84bd 26c8 45be 7b76 73be
00000190: bcae 1dbe d857 1dbe 2735 363e 4a3b 373e
000001a0: 8b7b 16be 1375 503d 7ea8 9dbd 9f1a 403e
000001b0: f300 183e b4b8 0d3e 8ff9 973d 8751 c7be
000001c0: c83e 663e 0a3e 9bba 6114 57bd 3a39 863d
000001d0: 671b 42be 5a09 8f3c 35ae cf3c 8da1 c7be
000001e0: 3cbc b13e 09f6 cabd 594d 2a3e f441 32bd
000001f0: c463 183e cf30 473e a114 ad3d 313e ddbc
00000200: d680 0c3e d879 e0bd d63c 23be 14d3 363e
00000210: 8094 3fbe 3aba 05bd 22c0 ec3c 79d5 04be
00000220: 424d 42be 33d3 89bc ab83 4c3d 6543 283d
00000230: f39c 25be ce05 283c 2fb9 87bd 6701 5dbe
00000240: 66fe 4cbe e2c3 733d 71b3 5b3e 6894 2abe
00000250: 2026 85bd 7e30 c4bd 851f 27bd 53ce 543e
00000260: 42a0 f43c f9e0 1a3d 19c4 c3bc 5515 a03e
00000270: 32fe 3cbb 0987 e0bd a591 a63e 0d72 f7bd
00000280: 57e5 103f ef11 aabe 47bd 303d e0a5 313e
00000290: b310 ef3d efee 193c 1b7e b43d 98b1 f83c
000002a0: 1a1a 263e 9086 993d b764 13bc 452a ad3b
000002b0: d1c1 56be f391 b13e d81f 12bf be92 11bd
000002c0: 4460 553e 8f43 6f3d b074 463e 2f09 383d
000002d0: 4108 003f 9223 32be 30ab 0bbe 4214 f53e
000002e0: 52b7 6e3e ea88 d33d a9fb cd3d 90ee fa3d
000002f0: cdd9 383e 917b 81bc 468d 6c3e 7de2 33bd
00000300: 81b7 bf3e 47c4 193e 6eca 38be e9dc 333f
00000310: e9d9 0fbf a7b8 523f 5886 2a3e 3250 4b3d
00000320: b71d c0bd c46d 4b3e d2f7 9bbd 8c25 0c3e
00000330: d19a 0fbe f18a 743e a4a0 84bc e1ff 723e
00000340: e456 7bbd 51dd 74bd b926 b7bd bc7c 91bd
00000350: b8d4 023e 4418 49be 80fe cb3e 9ea7 53bc
00000360: 6681 5bbe c50d 153d c97c 303d a6a9 59bd
00000370: 14d4 5e3e c612 053e 4002 473e 3e12 883d
00000380: 483d e43d 6079 07be 931d 9e3d 6bc7 dd3e
00000390: 6688 87be 10ff ef3d cee7 4c3e 0ff3 9fbe
000003a0: bab1 c63e d0de 80be 3f23 09be 2ed4 70be
000003b0: ed2c 07be 1a03 12be 6dde 57bd 56e4 313d
000003c0: 1741 4b3d 845f 2f3d f389 abbd ce15 523c
000003d0: 7ce4 b33e 74ae 95be 2ed3 87be 051e 2b3d
000003e0: 90fd ab3d 3645 be3d f9b1 3cbd ce00 bb3c
000003f0: 28b3 83bc b0f6 c5bc 9014 6f3c a68c 51be

bias f4 [18]
0.16843106 0.07811192 -0.06426489 0.11188654 0.27246675 0.048385397 0.0402127 -0.13044418
0.28485346 0.17949514 0.2802427 0.29031467 0.09388502 0.04724439 -0.188758 0.34824008
-0.0636324 -0.17945305
00000000: 3179 2c3e 24f9 9f3d 509d 83bd c524 e53d
00000010: c380 8b3e c42f 463d 12b6 243d 2993 05be
00000020: 50d8 913e 93cd 373e f97b 8f3e 20a4 943e
00000030: ca46 c03d 5583 413d c749 41be 864c b23e
00000040: b451 82bd 8ac2 37be

weight f4 [64, 18]
-0.01687256 0.027493818 0.09524087 0.20935892 0.0150402095 -0.22161603 0.14505923 0.09697348
-0.084687606 0.025510892 -0.18332624 -0.058357712 0.19778661 0.1792064 0.07412453 -0.2237213
0.17307982 -0.021127678 0.15134823 -0.0007876416 0.13752356 0.13137268 -0.14758146 -0.17463885
0.28063208 0.1171499 0.0033417619 -0.061270975 0.22914419 0.059916086 -0.05067918 -0.15307723
0.19247301 0.13644776 0.1598028 0.1306486 -0.1953106 0.32024053 0.025125261 0.08497496
0.13475017 0.02752496 -0.19122449 0.0048430446 0.3411976 0.32226065 -0.085501686 0.021459937
0.11343762 -0.19990425 -0.017473862 0.18709385 0.14633368 -0.15176232 -0.19269364 0.018695924
-0.22266546 0.22249208 -0.22478545 0.17577471 0.040313985 -0.10338729 -0.23290338 0.0050256294
0.25853303 -0.15698856 0.11285304 -0.048588384 -0.0493688 -0.1288152 0.17585784 -0.08802283
0.6076985 -0.29318196 0.20729734 0.35994273 0.08080157 -0.11099425 -0.042742517 -0.13004553
-0.091407105 -0.0945631 0.55321705 0.08847187 -0.101588294 0.2656076 0.19420461 0.03127715
-0.15107943 0.24953723 0.5028481 -0.28163028 -0.019864772 -0.14365608 0.11325177 0.17320772
0.10573741 -0.14464054 -0.28291905 0.24137805 0.49279013 0.0014848894 -0.21142569 0.15911709
-0.19671288 -0.10426223 -0.19467218 0.08371198 -0.1703456 0.14488433 -0.28519723 0.06797416
0.26426703 0.20363891 -0.27362537 -0.20668972 -0.044493962 0.03455481 -0.19646122 0.16413482
0.2877244 -0.17705615 0.13689528 0.21358591 -0.13388596 -0.119466685 -0.21010348 0.014770124
0.14539944 0.15851602 0.105251454 0.15145396 0.013265306 0.041011266 -0.042097043 -0.19033767
-0.23497051 0.03236406 -0.25223228 -0.09542077 0.20080264 -0.029068066 -0.033989113 -0.03210276
-0.038196597 -0.04446649 -0.043468945 0.16029151 0.19700259 0.029575072 -0.17254657 0.10387323
0.1997108 0.16708137 0.25288635 0.19716422 -0.0996867 0.15306202 -0.12612748 -0.20370565
-0.026901852 -0.07465775 0.5163499 -0.22001442 0.22966203 0.1462908 -0.10359929 0.074174814
0.2363261 0.23993856 -0.16693269 0.06185497 0.5295772 0.011537522 -0.13490832 0.04662844
0.14333306 -0.0007262433 -0.25274977 0.16160083 -0.27169147 0.3400302 -0.2306182 -0.18261261
0.26481304 -0.1589402 0.11865217 0.038331475 -0.018620051 0.28074455 -0.23320425 0.23911537
-0.048470527 -0.24758154 0.17067094 0.11086441 0.3777087 -0.22959748 -0.2253975 0.10366991
-0.13343936 -0.011595811 -0.09472781 0.23567924 0.19266847 0.19806273 -0.10079258 -0.086441964
-0.20864005 0.0101386 0.0906275 0.15479062 -0.052857623 -0.20320755 -0.19897594 -0.1294778
-0.0704666 -0.07563313 0.026197296 -0.20821936 -0.01624527 0.110964455 -0.039150927 0.19452249
0.18400706 -0.11789867 0.101482265 -0.14444472 -0.14309771 -0.008423869 0.08756699 0.039701797
-0.101258084 -0.024360837 -0.021656634 0.024929438 -0.16661008 0.03701702 -0.103851296 0.17789617
-0.1793057 0.034408167 0.09109305 -0.2012614 0.16248079 -0.18307781 -0.029964248 -0.002401661
0.15164919 0.1522614 0.037906658 -0.22002292 -0.32040226 0.39365202 -0.043157373 -0.28405726
00000000: 5338 8abc b73a e13c a50d c33d 2f62 563e
00000010: 366b 763c 50ef 62be 688a 143e 089a c63d
00000020: b270 adbd 38fc d03c e0b9 3bbe 7f08 6fbd
00000030: 9388 4a3e e281 373e 9ace 973d 3217 65be
00000040: d63b 313e f413 adbc 08fb 1a3e bc79 4eba
00000050: fad2 0c3e 8f86 063e 981f 17be 87d4 32be
00000060: 02af 8f3e 49ec ef3d 7601 5b3b 46f7 7abd
00000070: c6a4 6a3e 926a 753d f994 4fbd 47c0 1cbe
00000080: a517 453e f6b8 0b3e 58a3 233e bfc8 053e
00000090: 80ff 47be 91f6 a33e 7ed3 cd3c 5a07 ae3d
000000a0: f3fb 093e 067c e13c 5ad0 43be 67b2 9e3b
000000b0: 74b1 ae3e 59ff a43e 821b afbd c0cc af3c
000000c0: fc51 e83d b3b3 4cbe 5825 8fbc 8895 3f3e
000000d0: 7fd8 153e 9567 1bbe 7b51 45be 3228 993c
000000e0: 6a02 64be f7d4 633e 282e 66be 49fe 333e
000000f0: 4720 253d b7bc d3bd 397e 6ebe 09ae a43b
00000100: 715e 843e 9cc1 20be 7f1f e73d 9d04 47bd
00000110: f036 4abd 22e8 03be 1414 343e 5045 b4bd
00000120: 2192 1b3f f21b 96be c145 543e 6a4a b83e
00000130: 4b7b a53d f450 e3bd c712 2fbd a82a 05be
00000140: a633 bbbd 4caa c1bd a29f 0d3f bd30 b53d
00000150: 860d d0bd b8fd 873e 93dd 463e 781c 003d
00000160: 91b4 1abe b086 7f3e a7ba 003f d831 90be
00000170: 72bb a2bc 941a 13be 8bf0 e73d 5d5d 313e
00000180: db8c d83d a61c 14be c4da 90be cf2b 773e
00000190: fd4e fc3e 9fa0 c23a fa7f 58be 97ef 223e
000001a0: 1a6f 49be 7087 d5bd 2558 47be 3071 ab3d
000001b0: 146f 2ebe 8f5c 143e 5f05 92be 0936 8b3d
000001c0: 024e 873e b886 503e a018 8cbe 78a6 53be
000001d0: 4d3f 36bd 5889 0d3d 212d 49be f512 283e
000001e0: 9d50 933e 354e 35be 472e 0c3e 44b6 5a3e
000001f0: 6719 09be f3aa f4bd 5e25 57be 64fe 713c
00000200: 97e3 143e 0652 223e 138e d73d bf16 1b3e
00000210: ba56 593c 6efb 273d f36d 2cbd e1e7 42be
00000220: 1c9c 70be 2d90 043d 9724 81be f76b c3bd
00000230: 359f 4d3e 2720 eebc 2b38 0bbd 2f7e 03bd
00000240: 0974 1cbd 7f22 36bd 7e0c 32bd 7523 243e
00000250: 0cbb 493e 6c47 f23c 0cb0 30be 7dbb d43d
00000260: fd80 4c3e 6117 2b3e 527a 813e 6be5 493e
00000270: 8a28 ccbd 4abc 1c3e 9027 01be 3798 50be
00000280: 4661 dcbc 2ae6 98bd 822f 043f 764b 61be
00000290: 862c 6b3e 41cd 153e dd2b d4bd f7e8 973d
000002a0: 78ff 713e 74b2 753e 67f0 2abe a35b 7d3d
000002b0: 5f92 073f e007 3d3c 6825 0abe 77fd 3e3d
000002c0: e7c5 123e 5d61 3eba 6b68 81be b07a 253e
000002d0: 251b 8bbe 7018 ae3e 2d27 6cbe cdfe 3abe
000002e0: 9395 873e 38c1 22be e9ff f23d 7701 1d3d
000002f0: 1489 98bc c0bd 8f3e 18cd 6ebe a9da 743e
00000300: 0889 46bd 0486 7dbe 5dc4 2e3e e10c e33d
00000310: 0963 c13e 9a1b 6bbe 9ace 66be e450 d43d
00000320: 54a4 08be 5bfc 3dbc a700 c2bd e655 713e
00000330: e24a 453e f5d0 4a3e 576c cebd 7c08 b1bd
00000340: bda5 55be 5f1c 263c e99a b93d 6f81 1e3e
00000350: 3c81 58bd a415 50be 59c0 4bbe d495 04be
00000360: cb50 90bd 8be5 9abd b69b d63c 7537 55be
00000370: cd14 85bc 5541 e33d b95c 20bd e730 473e
00000380: 596c 3c3e dc74 f1bd efd5 cf3d 51e9 13be
00000390: 3588 12be 4404 0abc 5256 b33d 5a9e 223d
000003a0: 6660 cfbd 6190 c7bc 4169 b1bc d238 cc3c
000003b0: d59b 2abe 299f 173d fdaf d4bd 6a2a 363e
000003c0: ea9b 37be 94ef 0c3d fe8e ba3d 7817 4ebe
000003d0: 5d61 263e c078 3bbe 9577 f5bc 2f65 1dbb
000003e0: ed49 1b3e 6aea 1b3e 0344 1b3d b04d 61be
000003f0: c40b a4be c28c c93e c9c5 30bd f46f 91be

bias f4 [64]
-0.13708922 -0.028245581 0.007566615 0.106446676 0.22924331 0.4619034 0.30638564 0.18115525
-0.018763583 0.35050532 0.18965845 0.07625902 0.012065033 -0.14688896 -0.094016545 0.36430168
-0.0018907824 0.37582004 -0.21120003 -0.16187918 -0.21348725 -0.03259854 0.20600948 -0.14332746
0.3718655 0.0063564805 0.08676025 0.4068083 -0.12616278 0.15716967 -0.013104725 0.23060724
0.18441972 0.15884481 -0.093056634 -0.18360084 -0.09490607 -0.13745312 0.13176215 0.031621654
0.061771344 0.17793854 -0.104880854 -0.2127232 0.110349424 0.19985624 0.07145003 -0.073971175
0.01469399 0.17573543 -0.021593371 0.0909317 -0.12309204 0.28118455 0.21199404 0.25892094
-0.14260334 -0.07629768 -0.16568765 0.25151095 0.26316738 0.20395003 0.08540987 -0.07915609
00000000: 1e61 0cbe 4763 e7bc 5ef1 f73b b700 da3d
00000010: c2be 6a3e 9a7e ec3e 94de 9c3e c380 393e
00000020: 16b6 99bc 6f75 b33e d335 423e b02d 9c3d
00000030: 6bac 453c 0f6a 16be bf8b c0bd c085 ba3e
00000040: 21d4 f7ba 7c6b c03e d244 58be a8c3 25be
00000050: 679c 5abe 0c86 05bd 26f4 523e 6fc4 12be
00000060: 2865 be3e 064a d03b 5caf b13d 2d49 d03e
00000070: d130 01be 16f1 203e 33b5 56bc 4e24 6c3e
00000080: 86d8 3c3e 37a8 223e 7a94 bebd dc01 3cbe
00000090: 1d5e c2bd 83c0 0cbe a8ec 063e b585 013d
000000a0: f303 7d3d 8535 363e c6cb d6bd 1cd4 59be
000000b0: e1fe e13d 1da7 4c3e 6554 923d 337e 97bd
000000c0: 10bf 703c fdf3 333e 95e4 b0bc 663a ba3d
000000d0: ae17 fcbd 6cf7 8f3e f714 593e 4991 843e
000000e0: 9c06 12be f541 9cbd 06aa 29be 0bc6 803e
000000f0: e0bd 863e 47d8 503e 5feb ae3d 971c a2bd

weight f4 [4, 64]
-0.045440882 -0.22512458 0.2765709 0.07916925 -0.22552492 -0.26585704 0.2578251 -0.13280877
0.15777759 -0.35736415 0.15124552 0.12542959 0.10124169 -0.029285036 0.30387738 -0.3594585
0.193713 -0.3582463 0.017557614 -0.12427653 -0.10191311 -0.3181834 0.14770588 0.07416525
0.5566791 -0.1282008 0.20798782 -0.24850675 0.07931274 0.075609185 0.10609519 0.0049864543
-0.06114625 0.08235625 0.11104018 0.07291886 -0.031291317 -0.094922125 0.08652408 -0.07224697
0.09856809 -0.079545185 0.08254003 -0.12926191 0.044101417 -0.38768885 -0.17847098 0.035129353
-0.018113635 0.11535827 -0.0022055465 -0.0957372 -0.027513577 0.093829535 -0.17410502 -0.18453923
-0.010272009 0.016405739 -0.1546873 0.30072412 -0.24174084 -0.13414873 -0.021964058 0.19315413
0.07545751 0.24390665 -0.45840874 0.001037339 0.634413 0.43305507 -0.47259936 0.022965008
0.00041029367 0.5144684 -0.41580814 -0.095094725 0.01269715 -0.01506007 -0.42297995 0.5500172
-0.21371704 0.4812813 0.063511916 -0.08064701 -0.006834194 0.41883817 -0.100009836 -0.055452377
-0.7109936 0.13390206 -0.30846983 0.26850933 -0.028066047 0.10399331 -0.15389422 -0.003919429
0.12432532 0.053221066 -0.30035332 0.06946243 -0.12476792 0.03482562 0.046086792 -0.09813924
0.06474325 0.17115135 0.1770019 -0.032756984 -0.34514722 0.5015678 0.37075233 -0.3420099
0.031683087 -0.21887232 0.12706876 0.053267855 -0.09290218 -0.3963816 0.55794466 0.3459001
-0.24229854 -0.038377892 -0.12033581 -0.6922886 0.5661173 0.38805982 0.1567599 -0.010904251
-0.05043435 0.024069136 -0.17175671 -0.015805712 0.36340803 0.5135728 0.07444965 0.046233293
0.0007131018 0.3004986 -0.30679566 -0.05464018 0.08105268 -0.025845885 -0.4395474 0.20564337
-0.07973964 0.31350628 -0.053629037 -0.00049968064 0.09370217 0.010944776 0.02088071 -0.08796193
-0.2925269 0.079922654 0.07577926 0.29945624 0.07006266 -0.1905221 0.046564423 0.044883963
0.061086845 0.32091975 -0.066515654 0.010740408 0.06352116 -0.0573139 0.18292028 -0.025177952
-0.041251913 0.16851391 -0.16164741 0.061443023 -0.07007446 0.1390377 0.22991847 0.14828855
0.24149758 -0.13576084 0.10905223 -0.06662515 -0.07319567 -0.04487689 0.34605256 0.018281769
-0.038280334 -0.1067263 -0.10368585 -0.106786564 0.1103295 0.08198485 -0.15012215 -0.16821837
0.02980331 0.06136029 0.17995057 -0.08948498 -0.5635589 -0.6229933 0.12375116 0.010427267
-0.20327325 -0.6282952 0.40538928 -0.045050617 0.0072196405 -0.08785724 0.45206562 -0.32147273
-0.1090188 -0.6085594 0.050003767 -0.041475326 0.048320338 -0.28803128 0.19634841 0.120381854
0.4679137 -0.25783616 -0.038847487 -0.37420774 -0.10321022 0.08579568 0.052367963 0.0037055188
0.10599451 -0.3807734 0.32559276 0.0024553817 -0.08700986 -0.04742452 -0.18594758 0.007140086
-0.11170552 -0.043710705 0.13842553 0.08075396 0.49885815 -0.23623703 -0.14025363 0.12652317
-0.3145622 0.20578012 -0.08854314 0.04265095 0.023572238 0.34497085 -0.5248358 -0.2526205
0.32549858 0.0023761245 0.1811528 0.5256783 -0.10708871 -0.4333157 0.043352503 0.08236544
00000000: 3820 3abd 0f87 66be b39a 8d3e 7d23 a23d
00000010: 01f0 66be 6a1e 88be a701 843e 06ff 07be
00000020: 7390 213e 6ff8 b6be 1be0 1a3e 9d70 003e
00000030: ce57 cf3d 2ce7 efbc d195 9b3e f20a b8be
00000040: b35c 463e 0f6c b7be fcd4 8f3c b284 febd
00000050: d2b7 d0bd efe8 a2be 3640 173e f3e3 973d
00000060: 8682 0e3f 1247 03be c2fa 543e 8e78 7ebe
00000070: b86e a23d fdd8 9a3d 6f48 d93d 6965 a33b
00000080: 7e74 7abd 65aa a83d 0969 e33d 7c56 953d
00000090: 532b 00bd 8866 c2bd 8933 b13d 38f6 93bd
000000a0: 11de c93d 96e8 a2bd bf0a a93d 3c5d 04be
000000b0: b0a3 343d 277f c6be 19c1 36be cce3 0f3d
000000c0: 0c63 94bc f540 ec3d ee8a 10bb dd11 c4bd
000000d0: 2764 e1bc b329 c03d 9648 32be daf7 3cbe
000000e0: ee4b 28bc 5465 863c 5966 1ebe 83f8 993e
000000f0: e98a 77be 495e 09be f8ed b3bc 32ca 453e
00000100: 7889 9a3d aac2 793e 8db4 eabe 52f7 873a
00000110: e468 223f 65b9 dd3e 8bf8 f1be 1d21 bc3c
00000120: af1c d739 33b4 033f cee4 d4be 06c1 c2bd
00000130: b507 503c 83be 76bc d490 d8be edcd 0c3f
00000140: a4d8 5abe 816a f63e 8912 823d 422a a5bd
00000150: 60f1 dfbb f571 d63e f5d1 ccbd 0822 63bd
00000160: ad03 36bf 9f1d 093e c2ef 9dbe 0e7a 893e
00000170: c4ea e5bc 72fa d43d 7296 1dbe 8e6e 80bb
00000180: 469e fe3d 55fe 593d e9c7 99be 5242 8e3d
00000190: 5386 ffbd 4fa5 0e3d 81c5 3c3d 3afd c8bd
000001a0: 1c98 843d 4d42 2f3e fc3f 353e 302c 06bd
000001b0: 23b7 b0be bf66 003f 40d3 bd3e ec1b afbe
000001c0: 20c6 013d 1120 60be 501e 023e 652f 5a3d
000001d0: 8043 bebd 87f2 cabe 76d5 0e3f d119 b13e
000001e0: 1c1d 78be 2332 1dbd 9f72 f6bd d339 31bf
000001f0: 10ed 103f c7af c63e ab85 203e bea7 32bc
00000200: 4094 4ebd a32c c53c fee0 2fbe fb7a 81bc
00000210: 9e10 ba3e 8279 033f 0f79 983d 1f5f 3d3d
00000220: 74ef 3a3a f4da 993e 5214 9dbe 62ce 5fbd
00000230: f3fe a53d c0ba d3bc 5b0c e1be 2d94 523e
00000240: 894e a3bd e583 a03e 1faa 5bbd 00fd 02ba
00000250: ece6 bf3d b851 333c 060e ab3c 6225 b4bd
00000260: 16c6 95be 7dae a33d 2832 9b3d 5452 993e
00000270: 037d 8f3d 3a18 43be 56ba 3e3d 3fd8 373d
00000280: 3336 7a3d 984f a43e 5c39 88bd 89f8 2f3c
00000290: 6217 823d fbc1 6abd 744f 3b3e fe41 cebc
000002a0: c4f7 28bd e98e 2c3e e686 25be aeab 7b3d
000002b0: 3383 8fbd e65f 0e3e bf6f 6b3e f4d8 173e
000002c0: 244b 773e e404 0bbe c756 df3d c472 88bd
000002d0: 9de7 95bd d4d0 37bd cd2d b13e a6c3 953c
000002e0: d7cb 1cbd 5293 dabd 3f59 d4bd eab2 dabd
000002f0: 6ff4 e13d ace7 a73d 9fb9 19be 7041 2cbe
00000300: 1226 f43c ed54 7b3d f644 383e e743 b7bd
00000310: 6545 10bf 7d7c 1fbf 4071 fd3d 21d7 2a3c
00000320: dd26 50be f4d7 20bf 2f8f cf3e ff86 38bd
00000330: bc92 ec3b 7fee b3bd 2575 e73e 1398 a4be
00000340: 4045 dfbd 8dca 1bbf c0d0 4c3d 08e2 29bd
00000350: 8ceb 453d d678 93be 8f0f 493e c38a f63d
00000360: 6292 ef3e 1a03 84be 8b1e 1fbd 2898 bfbe
00000370: e15f d3bd a5b5 af3d ca7f 563d 4ad8 723b
00000380: a613 d93d bbf4 c2be 18b4 a63e 78ea 203b
00000390: 3a32 b2bd 3740 42bd 0b69 3ebe 62f7 e93b
000003a0: ddc5 e4bd ff09 33bd 6cbf 0d3e 5562 a53d
000003b0: 566a ff3e 1fe8 71be a69e 0fbe 4a8f 013e
000003c0: 4c0e a1be 06b8 523e 1b56 b5bd c3b2 2e3d
000003d0: 911a c13c 05a0 b03e a45b 06bf 7957 81be
000003e0: c0a7 a63e c1b8 1b3b 1f80 393e da92 063f
000003f0: 5351 dbbd 8edb ddbe 6592 313d 36af a83d

bias f4 [4]
0.061880108 0.1433096 0.08861354 -0.23651445
00000000: ff75 7d3d c0bf 123e 047b b53d d830 72be
